checkpoint.pth (torch, 8730 bytes, 24 tensors)

fc1.weight f4 [6, 6]
-0.7895125 0.52821517 -0.08717392 -0.6251391 0.005073466 -0.63063556 -0.6218785 -0.1331216
-1.4385126 0.3617015 -1.4151592 -0.8387502 0.9729471 1.4183527 -0.0021518415 0.6203348
1.7933544 0.40693626 1.0711726 -0.85045534 -0.46285486 1.1892018 -1.2174891 -0.010747377
0.3017292 0.77194124 -1.4891584 1.0131688 0.68018 -0.21517013 -1.0398079 -1.0413976
-1.1000065 0.7817479 0.4181138 -0.5130336
00000000: 7e1d 4abf 1c39 073f 3d88 b2bd 1e09 20bf
00000010: 513f a63b 5571 21bf 6e33 1fbf 0751 08be
00000020: 2e21 b8bf f030 b93e f023 b5bf 55b8 56bf
00000030: 1013 793f 958c b53f e905 0dbb 43ce 1e3f
00000040: a38c e53f f359 d03e 2f1c 893f 71b7 59bf
00000050: 50fb ecbe c437 983f afd6 9bbf c415 30bc
00000060: 407c 9a3e f19d 453f be9c bebf 84af 813f
00000070: 4720 2e3f 8f55 5cbe 6d18 85bf 844c 85bf
00000080: 03cd 8cbf a120 483f 0313 d63e 2c56 03bf

fc1.bias f4 [6]
0.5929289 0.3725197 -0.42767933 -0.16876549 0.49778417 0.10449175
00000000: 30ca 173f e7ba be3e c9f8 dabe dcd0 2cbe
00000010: 91dd fe3e c5ff d53d

fc2.weight f4 [8, 6]
0.04869473 0.048248746 -0.33357412 -0.2367814 -0.40237397 -0.37643605 0.5659852 -0.5744771
0.552497 1.2113749 -0.4826127 0.3124614 0.20507373 -0.11754581 -0.1681649 0.03760542
0.040878475 -0.33189917 -0.27798426 -1.5777072 0.5622413 -0.44214126 0.9574878 -1.7669263
0.65901816 -1.4912113 0.18842717 1.168487 0.5446766 -1.0789707 0.5187952 -1.3286084
0.15539682 1.824071 0.9340599 -1.0162481 -0.9198382 0.75970167 1.076238 0.7257771
-0.07600844 0.018718958 0.7874954 -0.2711635 -0.77132034 1.2762893 -0.0896665 -1.1280928
00000000: 2074 473d 7aa0 453d 3aca aabe d376 72be
00000010: f603 cebe 3abc c0be 68e4 103f ee10 13bf
00000020: 7270 0d3f 550e 9b3f 0319 f7be f1fa 9f3e
00000030: d9fe 513e dcbb f0bd 6b33 2cbe 2408 1a3d
00000040: 3070 273d b0ee a9be f453 8ebe 4ff2 c9bf
00000050: 0cef 0f3f 5760 e2be ec1d 753f a42a e2bf
00000060: 6ab5 283f 03e0 bebf 0df3 403e fb90 953f
00000070: ed6f 0b3f b61b 8abf c3cf 043f d70f aabf
00000080: 5820 1f3e 297b e93f 8d1e 6f3f 6b14 82bf
00000090: 847a 6bbf cf7b 423f 2bc2 893f 87cc 393f
000000a0: 50aa 9bbd 8058 993c 4c99 493f f1d5 8abe
000000b0: 4075 45bf 735d a33f 12a3 b7bd 5865 90bf

fc2.bias f4 [8]
-0.13852057 0.30663145 -0.4138836 0.4160661 0.18392086 -0.67318094 -0.7799206 0.53290963
00000000: 56d8 0dbe ccfe 9c3e 8de8 d3be 9e06 d53e
00000010: c055 3c3e 9655 2cbf e0a8 47bf c46c 083f

fc3.weight f4 [4, 8]
0.1734691 0.2260161 -0.016477823 0.14414755 -0.3163964 0.13559473 -0.48139322 0.15850833
0.038330745 0.7491954 -0.08051773 -0.8694971 0.32070416 0.70349133 0.39430693 -2.0274274
-0.17858298 -0.18851975 -0.0022944466 0.8747361 0.6296782 1.9435773 -2.1005816 -1.0205352
0.075236805 0.5293611 0.050045516 -1.9994581 -0.3134017 -0.21366929 0.15645573 0.41252503
00000000: e2a1 313e c470 673e 80fc 86bc 6a9b 133e
00000010: b5fe a1be 58d9 0a3e 2c79 f6be 0250 223e
00000020: b300 1d3d 45cb 3f3f 7be6 a4bd 5d97 5ebf
00000030: 5633 a43e 0218 343f 99e2 c93e 5fc1 01c0
00000040: 75de 36be 520b 41be 6d5e 16bb b4ee 5f3f
00000050: 9732 213f 24c7 f83f ee6f 06c0 e6a0 82bf
00000060: c115 9a3d 3684 073f 87fc 4c3d 3eee ffbf
00000070: 3076 a0be 1fcc 5abe ee35 203e 7b36 d33e

fc3.bias f4 [4]
-0.32032266 -0.64699614 0.26730505 0.34449765
00000000: 5501 a4be 8aa1 25bf 35dc 883e ff61 b03e

out.weight f4 [3, 4]
0.2260117 2.9854925 -0.6915771 -0.634974 -0.42364734 -1.3429968 1.2488376 -0.326872
-0.32589874 -0.49400207 1.3422694 1.958662
00000000: 9c6f 673e 4f12 3f40 320b 31bf a88d 22bf
00000010: 4ee8 d8be 52e7 abbf e9d9 9f3f c45b a7be
00000020: 33dc a6be d7ed fcbe 7ccf ab3f 70b5 fa3f

out.bias f4 [3]
-0.23747478 0.25180852 -1.7765994
00000000: 972c 73be 0ced 803e 9c67 e3bf

exp_avg f4 [6, 6]
3.3691816e-05 -0.0005507168 0.0001671772 -0.00045525678 0.00039672962 0.0003672858 0.0002543304 0.00072084984
-0.00019128111 0.0010530432 -0.00011437249 -0.0008221738 0.0008151755 0.00036705728 1.8160732e-05 0.0010453785
0.00039709016 -0.0011791468 0.0003987981 -0.00027545926 0.00018625456 0.0003860694 0.00080765865 -0.0004597517
-0.0006031977 -0.00079369557 0.00026781857 -0.0007502417 -0.0005776057 0.0013093586 0.00082997006 0.00032994116
-1.4897221e-05 0.0007430328 0.0005155026 -0.0009788922
00000000: 5050 0d38 fb5d 10ba 4a4c 2f39 88af eeb9
00000010: 2600 d039 4490 c039 a657 8539 6af7 3c3a
00000020: a292 48b9 4406 8a3a 43db efb8 2687 57ba
00000030: 80b1 553a 9871 c039 e057 9837 1505 893a
00000040: 8a30 d039 9a8d 9aba c615 d139 846b 90b9
00000050: 544d 4339 5c69 ca39 0eb9 533a d40a f1b9
00000060: ea1f 1eba 0210 50ba 006a 8c39 deab 44ba
00000070: 766a 17ba c99e ab3a 5992 593a f4fb ac39
00000080: 14ef 79b7 16c8 423a cb22 073a 2c4e 80ba

exp_avg_sq f4 [6, 6]
1.1396898e-05 3.509945e-05 5.8775063e-06 3.206094e-05 4.672655e-06 4.5514214e-05 4.2285872e-05 0.0001505158
9.652464e-07 0.00015905347 1.6863055e-06 0.00021415569 0.00022073604 3.777468e-05 2.4403746e-05 0.00022720033
4.8496975e-05 0.00024813326 0.00014595881 7.737735e-06 4.4116678e-05 0.00010988502 0.00010418761 0.000119048054
0.00022207298 9.16884e-05 6.391133e-05 0.00025585445 0.00014091097 0.00040599404 0.00010545083 1.8980345e-05
8.655027e-07 0.00020523564 9.04581e-05 0.0002542878
00000000: 4e35 3f37 bf37 1338 6537 c536 2c79 0638
00000010: cdc9 9c36 84e6 3e38 1c5c 3138 c7d3 1d39
00000020: 9d8d 8135 97c7 2639 0455 e235 fb8e 6039
00000030: 6175 6739 4170 1e38 a5b6 cc37 a03c 6e39
00000040: 3b69 4b38 e217 8239 850c 1939 52d1 0137
00000050: ec09 3938 1272 e638 4c7f da38 70a9 f938
00000060: 43dc 6839 d648 c038 2208 8638 3424 8639
00000070: 80c1 1339 99db d439 7c25 dd38 fb37 9f37
00000080: e554 6835 8634 5739 53b4 bd38 ee51 8539

exp_avg f4 [6]
-0.00036728568 0.0008221755 0.0011791445 0.0004597521 -0.0013093543 0.0009788933
00000000: 4090 c0b9 4487 573a 868d 9a3a e20a f139
00000010: a49e abba 354e 803a

exp_avg_sq f4 [6]
4.5514207e-05 0.00021415572 0.00024813323 0.00011904806 0.00040599416 0.0002542878
00000000: 82e6 3e38 fd8e 6039 e117 8239 71a9 f938
00000010: 9ddb d439 ee51 8539

exp_avg f4 [8, 6]
0.0 0.0 0.0 0.0 0.0 0.0 0.00012808776 7.140511e-05
0.0012430294 0.00019426504 0.0012764074 0.00021935094 0.0 0.0 5.973995e-11 1.2946626e-10
4.3082756e-11 0.0 -0.00012959093 -0.00024805125 -0.0015737328 -0.00034509442 -0.0017993468 -0.000113834714
-5.741087e-05 -8.2591316e-05 0.0001631255 4.381103e-05 4.666479e-05 0.00010598658 -0.0003443081 -0.000485351
-0.00016869162 -0.00015090415 -0.0008656754 3.7218793e-05 0.0004107319 0.0005763249 0.0015451172 0.0007261169
0.0024010816 0.0005643666 2.5331374e-05 -0.00018019337 -0.00027172102 -0.0005436421 -0.0005046615 -0.00013016118
00000000: 0000 0000 0000 0000 0000 0000 0000 0000
00000010: 0000 0000 0000 0000 4c4f 0639 54bf 9538
00000020: 25ed a23a a0b3 4b39 204d a73a 9201 6639
00000030: 0000 0000 0000 0000 9a5e 832e 8359 0e2f
00000040: df7a 3d2e 0000 0000 cde2 07b9 e00c 82b9
00000050: b645 ceba caed b4b9 0fd8 ebba 8cba eeb8
00000060: 74cc 70b8 e034 adb8 ab0c 2b39 bcc1 3738
00000070: f0b9 4338 1d45 de38 4084 b4b9 b576 feb9
00000080: d0e2 30b9 063c 1eb9 7eee 62ba 601b 1c38
00000090: 8157 d739 8214 173a 8885 ca3a e158 3e3a
000000a0: 775b 1d3b 00f2 133a b67e d437 4af2 3cb9
000000b0: c775 8eb9 3483 0eba 434b 04ba e07b 08b9

exp_avg_sq f4 [8, 6]
0.0 0.0 0.0 0.0 0.0 0.0 5.9256377e-06 3.2957716e-06
0.00036533314 3.697787e-05 0.00024837794 7.005927e-06 1.9664894e-08 2.4112481e-11 4.5188536e-10 1.4661045e-10
1.1820293e-08 4.3183623e-13 2.6648257e-05 1.1085117e-05 0.00085614173 5.661183e-05 0.0005855915 1.4738218e-05
1.9030211e-06 1.0762027e-06 7.772462e-06 6.2706386e-07 6.1343408e-06 1.8718448e-07 1.8040153e-05 1.5079682e-05
5.9971142e-05 5.1805846e-06 8.940953e-05 2.395532e-06 1.8134346e-05 3.539453e-05 0.0010219949 0.00014276558
0.00088243326 1.8595334e-05 2.0078892e-06 1.5884229e-05 4.217479e-05 6.1561484e-05 0.00010424268 1.5470821e-06
00000000: 0000 0000 0000 0000 0000 0000 0000 0000
00000010: 0000 0000 0000 0000 d7d4 c636 ed2c 5d36
00000020: 2f8a bf39 b018 1b38 b938 8239 7414 eb36
00000030: 8feb a832 7b18 d42d 366d f82f 2c33 212f
00000040: 3312 4b32 291a f32a b28a df37 37fa 3937
00000050: b36e 603a 7d72 6d38 6182 193a 2a44 7737
00000060: 4f6b ff35 0b72 9035 7866 0237 8053 2835
00000070: 96d5 cd36 e1fc 4834 ef54 9737 befe 7c37
00000080: 8689 7b38 e2d4 ad36 6081 bb38 edc2 2036
00000090: 361f 9837 9674 1438 75f4 853a 58b3 1539
000000a0: 1853 673a 2dfd 9b37 46bf 0636 1f3f 8537
000000b0: d6e4 3038 921a 8138 dd9c da38 56a5 cf35

exp_avg f4 [8]
0.0 0.0004655811 7.861753e-11 -0.0005469152 5.2960895e-05 -0.00019746041 0.0009897964 -0.00018303399
00000000: 0000 0000 3d19 f439 bce1 ac2e dc5e 0fba
00000010: 5422 5e38 600d 4fb9 0ebc 813a d0ec 3fb9

exp_avg_sq f4 [8]
0.0 7.1998395e-05 2.5275606e-08 0.00017518362 2.4459205e-06 2.7183067e-05 0.00022886168 2.3435678e-05
00000000: 0000 0000 d8fd 9638 a51d d932 7fb1 3739
00000010: 9824 2436 3107 e437 97fa 6f39 bc97 c437

exp_avg f4 [4, 8]
0.0 1.5788415e-33 0.0 2.9326966e-33 2.7445852e-33 2.1634959e-33 6.251162e-35 0.0
0.0 0.0008804025 7.3344434e-13 0.001623119 0.0012410053 0.0015386015 0.001402356 0.00017658444
0.0 -0.00034835527 3.6837514e-14 -0.0006561248 -0.0006448121 -0.0008759467 -0.00041506672 -0.00016001334
0.0 -0.00027601002 1.6114238e-12 8.590938e-06 -0.00023376879 -0.0003435951 -0.00024742415 -0.00025159947
00000000: 0000 0000 3f2a 0309 0000 0000 8fa3 7309
00000010: df02 6409 78bc 3309 342f a606 0000 0000
00000020: 0000 0000 d0ca 663a 3c72 4e2b d6be d43a
00000030: 3aa9 a23a e6aa c93a 42cf b73a 8629 3939
00000040: 0000 0000 74a3 b6b9 c3e6 2529 caff 2bba
00000050: 9c08 29ba ca9f 65ba 509d d9b9 41c9 27b9
00000060: 0000 0000 70b5 90b9 a9c9 e22b cc21 1037
00000070: d51f 75b9 8e24 b4b9 b5b8 81b9 1ce9 83b9

exp_avg_sq f4 [4, 8]
0.0 3.2036547e-07 4.8889483e-08 9.8349675e-09 4.2477353e-07 3.6278326e-08 2.4734306e-09 2.5451146e-07
0.0 0.0003362373 4.5750337e-15 0.0006247413 0.00053575146 0.0006662215 0.00047387634 9.4585985e-06
0.0 7.268264e-05 2.3213502e-09 0.0001065631 0.00011636582 0.00014492155 9.965585e-05 3.9442666e-06
0.0 6.5495988e-06 8.3229255e-09 6.2588106e-07 8.584913e-06 8.222599e-06 2.9980645e-06 5.768242e-06
00000000: 0000 0000 b2fe ab34 8efa 5133 a5f6 2832
00000010: 6e0c e434 71d0 1b33 0df9 2931 caa3 8834
00000020: 0000 0000 0249 b039 3dd5 a427 aec5 233a
00000030: ac71 0c3a 5ea5 2e3a 9b72 f839 5fb0 1e37
00000040: 0000 0000 326d 9838 a085 1f31 a17a df38
00000050: 6d09 f438 15f6 1739 54fe d038 fe58 8436
00000060: 0000 0000 a0c4 db36 9dfc 0e32 3802 2835
00000070: ec07 1037 cbf3 0937 5b32 4936 d28c c136

exp_avg f4 [4]
1.0148919e-33 0.00069333444 -0.000439964 -0.00023960146
00000000: baa0 a808 e3c0 353a f8aa e6b9 873d 7bb9

exp_avg_sq f4 [4]
5.1560824e-07 0.00012434267 4.088618e-05 5.88889e-06
00000000: 5468 0a35 fb61 0239 347d 2b38 2e99 c536

exp_avg f4 [3, 4]
1.5736318e-37 0.00015709974 0.00082027283 0.000120491706 -4.1134973e-35 -4.107761e-05 -1.2010802e-05 -3.582496e-05
4.0977627e-35 -0.000116017996 -0.000808232 -8.466367e-05
00000000: 1131 5602 24bb 2439 9407 573a 7eb0 fc38
00000010: 06b6 5a86 bf4a 2cb8 0082 49b7 c242 16b8
00000020: dbdf 5906 b04e f3b8 88df 53ba 768d b1b8

exp_avg_sq f4 [3, 4]
6.6012235e-10 1.4429184e-05 0.00012471339 6.7898895e-06 8.9933266e-10 6.3526777e-06 0.00011252457 6.277632e-06
1.8526685e-11 2.9674654e-06 3.71007e-05 7.071172e-07
00000000: fb73 3530 e014 7237 7fc5 0239 b5d4 e336
00000010: e934 7730 1629 d536 2bfb eb38 73a4 d236
00000020: 63f6 a22d ab24 4736 939c 1b38 b9d0 3d35

exp_avg f4 [3]
0.0001595479 -3.0129459e-05 -0.00012940748
00000000: 504c 2739 85be fcb7 8eb1 07b9

exp_avg_sq f4 [3]
0.00012655489 0.000110037574 4.734206e-06
00000000: d2b3 0439 f9c3 e638 85da 9e36
